2021-05-22 13:33:25,133: <INFO> Trying simple model
2021-05-22 13:33:49,697: <INFO> Training data size 48699
2021-05-22 13:33:49,698: <INFO> Training model: attempt 0
2021-05-22 13:33:50,535: <INFO> Model: "simple"
2021-05-22 13:33:50,535: <INFO> _________________________________________________________________
2021-05-22 13:33:50,536: <INFO> Layer (type)                 Output Shape              Param #   
2021-05-22 13:33:50,536: <INFO> =================================================================
2021-05-22 13:33:50,538: <INFO> conv-1 (Conv2D)              (None, 16, 16, 8)         104       
2021-05-22 13:33:50,539: <INFO> _________________________________________________________________
2021-05-22 13:33:50,540: <INFO> conv-1-leaky (LeakyReLU)     (None, 16, 16, 8)         0         
2021-05-22 13:33:50,540: <INFO> _________________________________________________________________
2021-05-22 13:33:50,541: <INFO> conv-2 (Conv2D)              (None, 8, 8, 16)          528       
2021-05-22 13:33:50,542: <INFO> _________________________________________________________________
2021-05-22 13:33:50,543: <INFO> conv-2-leaky (LeakyReLU)     (None, 8, 8, 16)          0         
2021-05-22 13:33:50,543: <INFO> _________________________________________________________________
2021-05-22 13:33:50,546: <INFO> conv-3 (Conv2D)              (None, 4, 4, 16)          1040      
2021-05-22 13:33:50,547: <INFO> _________________________________________________________________
2021-05-22 13:33:50,548: <INFO> conv-3-leaky (LeakyReLU)     (None, 4, 4, 16)          0         
2021-05-22 13:33:50,548: <INFO> _________________________________________________________________
2021-05-22 13:33:50,549: <INFO> conv-4 (Conv2D)              (None, 2, 2, 1)           65        
2021-05-22 13:33:50,550: <INFO> _________________________________________________________________
2021-05-22 13:33:50,551: <INFO> conv-4-leaky (LeakyReLU)     (None, 2, 2, 1)           0         
2021-05-22 13:33:50,551: <INFO> _________________________________________________________________
2021-05-22 13:33:50,553: <INFO> conv-5 (Conv2D)              (None, 1, 1, 10)          50        
2021-05-22 13:33:50,554: <INFO> _________________________________________________________________
2021-05-22 13:33:50,555: <INFO> conv-5-leaky (LeakyReLU)     (None, 1, 1, 10)          0         
2021-05-22 13:33:50,556: <INFO> _________________________________________________________________
2021-05-22 13:33:50,558: <INFO> conv-4-softmax (Softmax)     (None, 1, 1, 10)          0         
2021-05-22 13:33:50,558: <INFO> =================================================================
2021-05-22 13:33:50,561: <INFO> Total params: 1,787
2021-05-22 13:33:50,562: <INFO> Trainable params: 1,787
2021-05-22 13:33:50,562: <INFO> Non-trainable params: 0
2021-05-22 13:33:50,562: <INFO> _________________________________________________________________
2021-05-22 13:33:56,399: <INFO> Epoch 0, loss 2.202843, change 2.202843, grad norm 0.270511, lr 0.004000
…
