2021-05-21 20:25:25,874: <INFO> Trying simple model
2021-05-21 20:25:27,143: <INFO> Training data size 14940
2021-05-21 20:25:27,144: <INFO> Training model: attempt 0
2021-05-21 20:25:27,329: <INFO> Model: "simple"
2021-05-21 20:25:27,330: <INFO> _________________________________________________________________
2021-05-21 20:25:27,332: <INFO> Layer (type)                 Output Shape              Param #   
2021-05-21 20:25:27,333: <INFO> =================================================================
2021-05-21 20:25:27,336: <INFO> conv-1 (Conv2D)              (None, 16, 16, 8)         104       
2021-05-21 20:25:27,336: <INFO> _________________________________________________________________
2021-05-21 20:25:27,337: <INFO> conv-1-leaky (LeakyReLU)     (None, 16, 16, 8)         0         
2021-05-21 20:25:27,338: <INFO> _________________________________________________________________
2021-05-21 20:25:27,340: <INFO> conv-2 (Conv2D)              (None, 8, 8, 16)          528       
2021-05-21 20:25:27,340: <INFO> _________________________________________________________________
2021-05-21 20:25:27,342: <INFO> conv-2-leaky (LeakyReLU)     (None, 8, 8, 16)          0         
2021-05-21 20:25:27,342: <INFO> _________________________________________________________________
2021-05-21 20:25:27,343: <INFO> conv-3 (Conv2D)              (None, 4, 4, 16)          1040      
2021-05-21 20:25:27,344: <INFO> _________________________________________________________________
2021-05-21 20:25:27,345: <INFO> conv-3-leaky (LeakyReLU)     (None, 4, 4, 16)          0         
2021-05-21 20:25:27,346: <INFO> _________________________________________________________________
2021-05-21 20:25:27,347: <INFO> conv-4 (Conv2D)              (None, 2, 2, 1)           65        
2021-05-21 20:25:27,348: <INFO> _________________________________________________________________
2021-05-21 20:25:27,349: <INFO> conv-4-leaky (LeakyReLU)     (None, 2, 2, 1)           0         
2021-05-21 20:25:27,349: <INFO> _________________________________________________________________
2021-05-21 20:25:27,351: <INFO> conv-5 (Conv2D)              (None, 1, 1, 10)          50        
2021-05-21 20:25:27,351: <INFO> _________________________________________________________________
2021-05-21 20:25:27,352: <INFO> conv-5-leaky (LeakyReLU)     (None, 1, 1, 10)          0         
2021-05-21 20:25:27,353: <INFO> _________________________________________________________________
2021-05-21 20:25:27,353: <INFO> conv-4-softmax (Softmax)     (None, 1, 1, 10)          0         
2021-05-21 20:25:27,356: <INFO> =================================================================
2021-05-21 20:25:27,360: <INFO> Total params: 1,787
2021-05-21 20:25:27,360: <INFO> Trainable params: 1,787
2021-05-21 20:25:27,361: <INFO> Non-trainable params: 0
2021-05-21 20:25:27,361: <INFO> _________________________________________________________________
2021-05-21 20:25:31,976: <INFO> Epoch 0, loss 2.061239, change 2.061239, grad norm 3.823128, lr 0.004000
…
