2021-05-27 08:07:28,313: <INFO> Trying chuah_et_al model
2021-05-27 08:07:29,445: <INFO> Training model: attempt 0
2021-05-27 08:07:29,576: <INFO> Model: "chuan_et_al"
2021-05-27 08:07:29,576: <INFO> _________________________________________________________________
2021-05-27 08:07:29,577: <INFO> Layer (type)                 Output Shape              Param #   
2021-05-27 08:07:29,578: <INFO> =================================================================
2021-05-27 08:07:29,580: <INFO> conv_1 (Conv2D)              (None, 28, 28, 20)        1520      
2021-05-27 08:07:29,580: <INFO> _________________________________________________________________
2021-05-27 08:07:29,581: <INFO> max_pool_1 (MaxPooling2D)    (None, 14, 14, 20)        0         
2021-05-27 08:07:29,582: <INFO> _________________________________________________________________
2021-05-27 08:07:29,584: <INFO> conv_2 (Conv2D)              (None, 10, 10, 50)        25050     
2021-05-27 08:07:29,584: <INFO> _________________________________________________________________
2021-05-27 08:07:29,585: <INFO> max_pool_2 (MaxPooling2D)    (None, 5, 5, 50)          0         
2021-05-27 08:07:29,586: <INFO> _________________________________________________________________
2021-05-27 08:07:29,586: <INFO> conv_3 (Conv2D)              (None, 2, 2, 500)         400500    
2021-05-27 08:07:29,587: <INFO> _________________________________________________________________
2021-05-27 08:07:29,588: <INFO> conv_3_relu (ReLU)           (None, 2, 2, 500)         0         
2021-05-27 08:07:29,588: <INFO> _________________________________________________________________
2021-05-27 08:07:29,590: <INFO> conv_4 (Conv2D)              (None, 1, 1, 10)          20010     
2021-05-27 08:07:29,590: <INFO> _________________________________________________________________
2021-05-27 08:07:29,591: <INFO> conv_4_softmax (Softmax)     (None, 1, 1, 10)          0         
2021-05-27 08:07:29,591: <INFO> =================================================================
2021-05-27 08:07:29,594: <INFO> Total params: 447,080
2021-05-27 08:07:29,594: <INFO> Trainable params: 447,080
2021-05-27 08:07:29,595: <INFO> Non-trainable params: 0
2021-05-27 08:07:29,596: <INFO> _________________________________________________________________
2021-05-27 08:28:34,427: <INFO> Epoch 0, loss 1.5740
…
2021-05-27 09:11:01,996: <INFO> Assets written to: trained_models/chuah_et_al\assets
2021-05-27 09:11:02,168: <INFO> Best loss is 0.002288
2021-05-27 09:11:02,269: <INFO> Trying simple model
2021-05-27 09:11:03,362: <INFO> Training model: attempt 0
2021-05-27 09:11:03,521: <INFO> Model: "simple"
2021-05-27 09:11:03,522: <INFO> _________________________________________________________________
2021-05-27 09:11:03,522: <INFO> Layer (type)                 Output Shape              Param #   
2021-05-27 09:11:03,523: <INFO> =================================================================
2021-05-27 09:11:03,525: <INFO> conv_1 (Conv2D)              (None, 16, 16, 8)         104       
2021-05-27 09:11:03,526: <INFO> _________________________________________________________________
2021-05-27 09:11:03,527: <INFO> conv_1_leaky (LeakyReLU)     (None, 16, 16, 8)         0         
2021-05-27 09:11:03,528: <INFO> _________________________________________________________________
2021-05-27 09:11:03,529: <INFO> conv_2 (Conv2D)              (None, 8, 8, 16)          528       
2021-05-27 09:11:03,529: <INFO> _________________________________________________________________
2021-05-27 09:11:03,531: <INFO> conv_2_leaky (LeakyReLU)     (None, 8, 8, 16)          0         
2021-05-27 09:11:03,531: <INFO> _________________________________________________________________
2021-05-27 09:11:03,532: <INFO> conv_3 (Conv2D)              (None, 4, 4, 16)          1040      
2021-05-27 09:11:03,533: <INFO> _________________________________________________________________
2021-05-27 09:11:03,534: <INFO> conv_3_leaky (LeakyReLU)     (None, 4, 4, 16)          0         
2021-05-27 09:11:03,535: <INFO> _________________________________________________________________
2021-05-27 09:11:03,536: <INFO> conv_4 (Conv2D)              (None, 2, 2, 1)           65        
2021-05-27 09:11:03,536: <INFO> _________________________________________________________________
2021-05-27 09:11:03,537: <INFO> conv_4_leaky (LeakyReLU)     (None, 2, 2, 1)           0         
2021-05-27 09:11:03,538: <INFO> _________________________________________________________________
2021-05-27 09:11:03,539: <INFO> conv_5 (Conv2D)              (None, 1, 1, 10)          50        
2021-05-27 09:11:03,539: <INFO> _________________________________________________________________
2021-05-27 09:11:03,540: <INFO> conv_5_leaky (LeakyReLU)     (None, 1, 1, 10)          0         
2021-05-27 09:11:03,541: <INFO> _________________________________________________________________
2021-05-27 09:11:03,542: <INFO> conv_5_softmax (Softmax)     (None, 1, 1, 10)          0         
2021-05-27 09:11:03,542: <INFO> =================================================================
2021-05-27 09:11:03,545: <INFO> Total params: 1,787
2021-05-27 09:11:03,545: <INFO> Trainable params: 1,787
2021-05-27 09:11:03,546: <INFO> Non-trainable params: 0
2021-05-27 09:11:03,547: <INFO> _________________________________________________________________
2021-05-27 09:38:34,352: <INFO> Epoch 0, loss 1.6310
…
