2021-05-23 08:27:30,286: <INFO> Trying simple model
2021-05-23 08:28:44,436: <INFO> Training data size 82060
2021-05-23 08:28:44,437: <INFO> Training model: attempt 0
2021-05-23 08:28:45,237: <INFO> Model: "simple"
2021-05-23 08:28:45,237: <INFO> _________________________________________________________________
2021-05-23 08:28:45,238: <INFO> Layer (type)                 Output Shape              Param #   
2021-05-23 08:28:45,238: <INFO> =================================================================
2021-05-23 08:28:45,241: <INFO> conv-1 (Conv2D)              (None, 16, 16, 8)         104       
2021-05-23 08:28:45,243: <INFO> _________________________________________________________________
2021-05-23 08:28:45,244: <INFO> conv-1-leaky (LeakyReLU)     (None, 16, 16, 8)         0         
2021-05-23 08:28:45,245: <INFO> _________________________________________________________________
2021-05-23 08:28:45,246: <INFO> conv-2 (Conv2D)              (None, 8, 8, 16)          528       
2021-05-23 08:28:45,246: <INFO> _________________________________________________________________
2021-05-23 08:28:45,247: <INFO> conv-2-leaky (LeakyReLU)     (None, 8, 8, 16)          0         
2021-05-23 08:28:45,248: <INFO> _________________________________________________________________
2021-05-23 08:28:45,249: <INFO> conv-3 (Conv2D)              (None, 4, 4, 16)          1040      
2021-05-23 08:28:45,250: <INFO> _________________________________________________________________
2021-05-23 08:28:45,250: <INFO> conv-3-leaky (LeakyReLU)     (None, 4, 4, 16)          0         
2021-05-23 08:28:45,251: <INFO> _________________________________________________________________
2021-05-23 08:28:45,251: <INFO> conv-4 (Conv2D)              (None, 2, 2, 1)           65        
2021-05-23 08:28:45,252: <INFO> _________________________________________________________________
2021-05-23 08:28:45,252: <INFO> conv-4-leaky (LeakyReLU)     (None, 2, 2, 1)           0         
2021-05-23 08:28:45,253: <INFO> _________________________________________________________________
2021-05-23 08:28:45,253: <INFO> conv-5 (Conv2D)              (None, 1, 1, 10)          50        
2021-05-23 08:28:45,254: <INFO> _________________________________________________________________
2021-05-23 08:28:45,254: <INFO> conv-5-leaky (LeakyReLU)     (None, 1, 1, 10)          0         
2021-05-23 08:28:45,254: <INFO> _________________________________________________________________
2021-05-23 08:28:45,255: <INFO> conv-4-softmax (Softmax)     (None, 1, 1, 10)          0         
2021-05-23 08:28:45,255: <INFO> =================================================================
2021-05-23 08:28:45,258: <INFO> Total params: 1,787
2021-05-23 08:28:45,259: <INFO> Trainable params: 1,787
2021-05-23 08:28:45,259: <INFO> Non-trainable params: 0
2021-05-23 08:28:45,260: <INFO> _________________________________________________________________
2021-05-23 08:31:22,693: <INFO> Trying simple model
…
